…
 7 6 5 6 4 1 2 8 7 0 5 3 1 3 6 2 6 0 9 9 6 7 3 5 3 6 0 3 9 0 9 2 2 8 1 6 3
 3 4 1 7 2 3 2 5]
x_train的最大值和最小值： 18.53415386725727 -18.909235618455217
x_test的最大值和最小值： 15.468925468649303 -15.544066179041465
正在进行初始输入数据的可视化...
Model: "cnn"
_________________________________________________________________
Layer (type)                 Output Shape              Param #   
=================================================================
input_1 (InputLayer)         [(None, 784, 1)]          0         
_________________________________________________________________
conv1d (Conv1D)              (None, 784, 8)            32        
_________________________________________________________________
max_pooling1d (MaxPooling1D) (None, 392, 8)            0         
_________________________________________________________________
conv1d_1 (Conv1D)            (None, 392, 16)           400       
_________________________________________________________________
max_pooling1d_1 (MaxPooling1 (None, 196, 16)           0         
_________________________________________________________________
flatten (Flatten)            (None, 3136)              0         
_________________________________________________________________
dropout (Dropout)            (None, 3136)              0         
_________________________________________________________________
dense (Dense)                (None, 32)                100384    
_________________________________________________________________
dense_1 (Dense)              (None, 10)                330       
=================================================================
Total params: 101,146
Trainable params: 101,146
Non-trainable params: 0
_________________________________________________________________
Epoch 1/10
 1/25 [>.............................] - ETA: 12s - loss: 2.4648 - accuracy: 0.1133 3
…
