…
正在进行初始输入数据的可视化.f..
reception_filter 32
output (None, 784, 32)
Model: "cnn"
__________________________________________________________________________________________________
Layer (type)                    Output Shape         Param #     Connected to                     
==================================================================================================
input_1 (InputLayer)            [(None, 784, 1)]     0                                            
__________________________________________________________________________________________________
conv1d (Conv1D)                 (None, 784, 32)      64          input_1[0][0]                    
__________________________________________________________________________________________________
conv1d_1 (Conv1D)               (None, 784, 32)      128         input_1[0][0]                    
__________________________________________________________________________________________________
conv1d_2 (Conv1D)               (None, 784, 32)      192         input_1[0][0]                    
__________________________________________________________________________________________________
max_pooling1d (MaxPooling1D)    (None, 784, 1)       0           input_1[0][0]                    
__________________________________________________________________________________________________
batch_normalization (BatchNorma (None, 784, 32)      128         conv1d[0][0]                     
__________________________________________________________________________________________________
batch_normalization_1 (BatchNor (None, 784, 32)      128         conv1d_1[0][0]                   
__________________________________________________________________________________________________
batch_normalization_2 (BatchNor (None, 784, 32)      128         conv1d_2[0][0]                   
__________________________________________________________________________________________________
conv1d_3 (Conv1D)               (None, 784, 32)      64          max_pooling1d[0][0]              
__________________________________________________________________________________________________
concatenate (Concatenate)       (None, 784, 128)     0           batch_normalization[0][0]        
                                                                 batch_normalization_1[0][0]      
                                                                 batch_normalization_2[0][0]      
                                                                 conv1d_3[0][0]                   
__________________________________________________________________________________________________
conv1d_4 (Conv1D)               (None, 784, 32)      12320       concatenate[0][0]                
__________________________________________________________________________________________________
dropout (Dropout)               (None, 784, 32)      0           conv1d_4[0][0]                   
__________________________________________________________________________________________________
flatten (Flatten)               (None, 25088)        0           dropout[0][0]                    
__________________________________________________________________________________________________
dense (Dense)                   (None, 32)           802848      flatten[0][0]                    
__________________________________________________________________________________________________
dense_1 (Dense)                 (None, 10)           330         dense[0][0]                      
==================================================================================================
Total params: 816,330
Trainable params: 816,138
Non-trainable params: 192
__________________________________________________________________________________________________
Epoch 1/10
1/6 [====>.........................] - ETA: 5s - loss: 2.5687 - ac
…
