…
x_valid的shape是：
(785, 784)
x_test的shape是：
(785, 784)
x_train的最大值和最小值： 18.53415386725727 -18.909235618455217
x_test的最大值和最小值： 15.46389257869479 -15.479637165290052
正在进行初始输入数据的可视化...
x_train.shape[1], x_train.shape[2]:
784 1
Model: "cnn"
_________________________________________________________________
Layer (type)                 Output Shape              Param #   
=================================================================
input_1 (InputLayer)         [(None, 784, 1)]          0         
_________________________________________________________________
conv1d (Conv1D)              (None, 784, 8)            48        
_________________________________________________________________
max_pooling1d (MaxPooling1D) (None, 392, 8)            0         
_________________________________________________________________
conv1d_1 (Conv1D)            (None, 392, 16)           400       
_________________________________________________________________
max_pooling1d_1 (MaxPooling1 (None, 196, 16)           0         
_________________________________________________________________
flatten (Flatten)            (None, 3136)              0         
_________________________________________________________________
dropout (Dropout)            (None, 3136)              0         
_________________________________________________________________
dense (Dense)                (None, 32)                100384    
_________________________________________________________________
dense_1 (Dense)              (None, 10)                330       
=================================================================
Total params: 101,162
Trainable params: 101,162
Non-trainable params: 0
_________________________________________________________________
Epoch 1/10
 1/25 [>.............................] - ETA: 11s - loss: 2.4753 - accuracy: 0.0586 3
…
