…
正在进行初始输入数据的可视化.f..
reception_filter 32
output (None, 784, 32)
Model: "cnn"
__________________________________________________________________________________________________
Layer (type)                    Output Shape         Param #     Connected to                     
==================================================================================================
input_1 (InputLayer)            [(None, 784, 1)]     0                                            
__________________________________________________________________________________________________
conv1d (Conv1D)                 (None, 784, 32)      64          input_1[0][0]                    
__________________________________________________________________________________________________
conv1d_1 (Conv1D)               (None, 784, 32)      128         input_1[0][0]                    
__________________________________________________________________________________________________
conv1d_2 (Conv1D)               (None, 784, 32)      192         input_1[0][0]                    
__________________________________________________________________________________________________
max_pooling1d (MaxPooling1D)    (None, 784, 1)       0           input_1[0][0]                    
__________________________________________________________________________________________________
batch_normalization (BatchNorma (None, 784, 32)      128         conv1d[0][0]                     
__________________________________________________________________________________________________
batch_normalization_1 (BatchNor (None, 784, 32)      128         conv1d_1[0][0]                   
__________________________________________________________________________________________________
batch_normalization_2 (BatchNor (None, 784, 32)      128         conv1d_2[0][0]                   
__________________________________________________________________________________________________
conv1d_3 (Conv1D)               (None, 784, 32)      64          max_pooling1d[0][0]              
__________________________________________________________________________________________________
concatenate (Concatenate)       (None, 784, 128)     0           batch_normalization[0][0]        
                                                                 batch_normalization_1[0][0]      
                                                                 batch_normalization_2[0][0]      
                                                                 conv1d_3[0][0]                   
__________________________________________________________________________________________________
conv1d_4 (Conv1D)               (None, 784, 32)      12320       concatenate[0][0]                
__________________________________________________________________________________________________
dropout (Dropout)               (None, 784, 32)      0           conv1d_4[0][0]                   
__________________________________________________________________________________________________
flatten (Flatten)               (None, 25088)        0           dropout[0][0]                    
__________________________________________________________________________________________________
dense (Dense)                   (None, 32)           802848      flatten[0][0]                    
__________________________________________________________________________________________________
dense_1 (Dense)                 (None, 10)           330         dense[0][0]                      
==================================================================================================
Total params: 816,330
Trainable params: 816,138
Non-trainable params: 192
__________________________________________________________________________________________________
Epoch 1/10
1/6 [====>.........................] - ETA: 5s - loss: 2.5687 - ac
…
 7 6 5 6 4 1 2 8 7 0 5 3 1 3 6 2 6 0 9 9 6 7 3 5 3 6 0 3 9 0 9 2 2 8 1 6 3
 3 4 1 7 2 3 2 5]
x_train的最大值和最小值： 18.53415386725727 -18.909235618455217
x_test的最大值和最小值： 15.468925468649303 -15.544066179041465
正在进行初始输入数据的可视化...
Model: "cnn"
_________________________________________________________________
Layer (type)                 Output Shape              Param #   
=================================================================
input_1 (InputLayer)         [(None, 784, 1)]          0         
_________________________________________________________________
conv1d (Conv1D)              (None, 784, 8)            32        
_________________________________________________________________
max_pooling1d (MaxPooling1D) (None, 392, 8)            0         
_________________________________________________________________
conv1d_1 (Conv1D)            (None, 392, 16)           400       
_________________________________________________________________
max_pooling1d_1 (MaxPooling1 (None, 196, 16)           0         
_________________________________________________________________
flatten (Flatten)            (None, 3136)              0         
_________________________________________________________________
dropout (Dropout)            (None, 3136)              0         
_________________________________________________________________
dense (Dense)                (None, 32)                100384    
_________________________________________________________________
dense_1 (Dense)              (None, 10)                330       
=================================================================
Total params: 101,146
Trainable params: 101,146
Non-trainable params: 0
_________________________________________________________________
Epoch 1/10

 1/25 [>.............................] - ETA: 12s - loss: 2.4648 - accuracy: 0.1133
 3/25 [==>...........................] - ETA: 0s - loss: 2.3489 - accuracy: 0.0977 
…
 9 7 8 4 3 6 8 9 4 0 2 5 0 4 6 1 2 4 6 7 8 0 6 5 6 4 6 2 9 0 2 5 5 4 6 3 3
 2 0 9 4 0 8 5 9]
x_train的最大值和最小值： 18.53415386725727 -18.909235618455217
x_test的最大值和最小值： 15.468925468649303 -15.544066179041465
正在进行初始输入数据的可视化...
x_train.shape[1], x_train.shape[2]:
784 1
Model: "cnn"
_________________________________________________________________
Layer (type)                 Output Shape              Param #   
=================================================================
input_1 (InputLayer)         [(None, 784, 1)]          0         
_________________________________________________________________
conv1d (Conv1D)              (None, 784, 8)            48        
_________________________________________________________________
max_pooling1d (MaxPooling1D) (None, 392, 8)            0         
_________________________________________________________________
conv1d_1 (Conv1D)            (None, 392, 16)           400       
_________________________________________________________________
max_pooling1d_1 (MaxPooling1 (None, 196, 16)           0         
_________________________________________________________________
flatten (Flatten)            (None, 3136)              0         
_________________________________________________________________
dropout (Dropout)            (None, 3136)              0         
_________________________________________________________________
dense (Dense)                (None, 32)                100384    
_________________________________________________________________
dense_1 (Dense)              (None, 10)                330       
=================================================================
Total params: 101,162
Trainable params: 101,162
Non-trainable params: 0
_________________________________________________________________
Epoch 1/10

 1/25 [>.............................] - ETA: 9s - loss: 2.3688 - accuracy: 0.0898
 3/25 [==>...........................] - ETA: 0s - loss: 2.2928 - accuracy: 0.1003
…
